Model: "sequential_2"
_________________________________________________________________
Layer (type)                 Output Shape              Param #   
=================================================================
rescaling_2 (Rescaling)      (None, 200, 200, 3)       0         
_________________________________________________________________
conv2d_2 (Conv2D)            (None, 200, 200, 16)      448       
_________________________________________________________________
max_pooling2d_2 (MaxPooling2 (None, 100, 100, 16)      0         
_________________________________________________________________
flatten_2 (Flatten)          (None, 160000)            0         
_________________________________________________________________
dense_4 (Dense)              (None, 128)               20480128  
_________________________________________________________________
dense_5 (Dense)              (None, 20)                2580      
=================================================================
Total params: 20,483,156
Trainable params: 20,483,156
Non-trainable params: 0
_________________________________________________________________
