Model: "sequential_4"
_________________________________________________________________
Layer (type)                 Output Shape              Param #   
=================================================================
conv2d_24 (Conv2D)           (None, 67, 67, 32)        896       
_________________________________________________________________
conv2d_25 (Conv2D)           (None, 23, 23, 32)        9248      
_________________________________________________________________
max_pooling2d_12 (MaxPooling (None, 11, 11, 32)        0         
_________________________________________________________________
conv2d_26 (Conv2D)           (None, 4, 4, 64)          18496     
_________________________________________________________________
conv2d_27 (Conv2D)           (None, 2, 2, 64)          36928     
_________________________________________________________________
max_pooling2d_13 (MaxPooling (None, 1, 1, 64)          0         
_________________________________________________________________
flatten_4 (Flatten)          (None, 64)                0         
_________________________________________________________________
dense_12 (Dense)             (None, 64)                4160      
_________________________________________________________________
dropout_8 (Dropout)          (None, 64)                0         
_________________________________________________________________
dense_13 (Dense)             (None, 64)                4160      
_________________________________________________________________
dropout_9 (Dropout)          (None, 64)                0         
_________________________________________________________________
dense_14 (Dense)             (None, 1)                 65        
_________________________________________________________________
activation_4 (Activation)    (None, 1)                 0         
=================================================================
Total params: 73,953
Trainable params: 73,953
Non-trainable params: 0
_________________________________________________________________
